Neural networks/net.model (torch, 19051 bytes, 6 tensors)

weight f4 [6, 3, 5, 5]
000000 ea 4d 61 3d fa 9b 4e 3d e1 61 ae bd 77 b1 53 3d
       0.055005945 0.05044172 -0.08514763 0.051682916
000010 d9 02 c0 bd b0 87 7d 3b 0b e0 c2 bd d5 df 1a 3d
       -0.09375543 0.0038685612 -0.09515389 0.03781112
000020 05 50 50 3d 36 e0 2a be 48 e7 a5 3d ab cf ce 3c
       0.050857563 -0.16687092 0.08100754 0.025245508
000030 2e 94 82 3d 60 91 b0 bd 7e 91 6a bd 50 61 98 bc
       0.06375919 -0.08621478 -0.05726766 -0.01860109
000040 41 95 2f 3e 57 78 1e 3d 08 be 11 be 2c e5 88 bd
       0.1714678 0.038688984 -0.14232647 -0.06684336
000050 47 22 89 bb fe 6d c7 3d d1 63 08 3d 0a 08 5f 3d
       -0.0041849944 0.09737776 0.033298317 0.054451026
000060 b8 79 1f be 66 9d b3 3a 73 d8 2a 3c 90 97 39 bd
       -0.15573776 0.0013703525 0.010427582 -0.045310557
000070 76 f8 e7 3c ce 24 04 be c8 8e 0f 3e cb 97 a1 bd
       0.028316718 -0.12904665 0.1401931 -0.0789028
000080 37 d9 e4 3d 51 82 47 3c b9 97 b9 bd 60 92 c4 3d
       0.11174243 0.012177066 -0.09062142 0.09598231
000090 db 7a 8b 3d 4d 6f e7 3d f2 cf 5d bd 6a d1 00 be
       0.06810542 0.11300526 -0.05415339 -0.12579885
0000a0 b7 26 6c 3d 1f f5 9f 3d fb e2 c0 3d ad 62 0a 3d
       0.05765411 0.07810425 0.09418293 0.03378551
0000b0 9d d2 b8 bc 25 6b 33 3b 10 de 33 3e 28 4f c1 3d
       -0.022561366 0.0027377096 0.17565179 0.09438926
0000c0 45 3f ed 3c 93 73 1d be 42 1c a0 bd bc 04 84 bc
       0.028960833 -0.1537612 -0.0781789 -0.016115539
0000d0 af bc a6 bd 6b e1 ae 3d 2a cc c2 bc 69 c6 94 3d
       -0.08141457 0.08539089 -0.023778994 0.07264406
0000e0 48 41 3f 3d 66 bb fb 3b 24 1d 59 3d f0 02 40 be
       0.046693116 0.0076822517 0.053006306 -0.1875112
0000f0 90 2f 1a 3d e9 ad 9b bc 84 e5 67 3d 05 48 06 be
       0.037643015 -0.019003825 0.056615368 -0.13113411
000100 31 4e d1 bd 36 f9 be 39 e9 e4 57 3e 35 d2 df bc
       -0.10219992 0.000364253 0.21083416 -0.027321914
000110 de e4 2f be b8 34 5e be 34 b6 f3 3d d9 9e ec 3d
       -0.1717715 -0.21699798 0.11899987 0.11553735
000120 42 32 14 3e ee 3c 40 be 1b 94 93 be 0b 26 d2 bd
       0.14472297 -0.18773243 -0.28823933 -0.10261162
000130 bb b6 8d bd 7e c9 9e 3d 59 82 af 3d 99 3d fd 3d
       -0.06919619 0.07753275 0.08569784 0.123652644
000140 9c 4a f3 bd 98 0f 0b be fd 20 3e 3c fc 5d af bd
       -0.11879465 -0.13580167 0.011604545 -0.08562848
000150 c9 d9 45 3d 05 4e 9d bd e7 87 13 3c 40 d6 1b be
       0.0483034 -0.07680897 0.00900457 -0.15218449
000160 76 45 e3 bd 87 a4 b3 bb fb 10 c0 3c 22 23 e7 bc
       -0.11097233 -0.0054822597 0.023445597 -0.028214995
000170 97 0f 5e 3d b4 1e 96 3d d1 4c a0 bd d3 b7 20 bd
       0.054214086 0.07330075 -0.078271516 -0.03923781
000180 89 10 0b 3e 1f bf 60 bc 37 1a 74 3b 75 77 69 bd
       0.13580526 -0.013717442 0.003724707 -0.05699869
000190 d5 e8 e2 bd 60 21 e1 3a 34 a3 0c bd b7 18 cc bd
       -0.110795654 0.0017176084 -0.03433533 -0.099656515
0001a0 62 d7 06 bd 3d 8d 12 be 21 c4 27 be b6 98 06 be
       -0.03292025 -0.1431169 -0.16383411 -0.13144192
0001b0 86 37 2e be 13 0d 08 be 39 da b6 3d e0 ad 52 bc
       -0.17013368 -0.13286237 0.089283414 -0.012858838
0001c0 eb 82 00 bc 3f 98 1e be 44 6d f1 bd 30 ef d7 3a
       -0.007843713 -0.15487765 -0.11788419 0.0016474482
0001d0 df f0 74 3d 4e cb 9b bd 14 47 d0 bc 6d 0b 1e bd
       0.059800025 -0.07607137 -0.025424518 -0.038585115
0001e0 06 e1 8e 3d 14 01 fd 3c e7 a3 6d 3d e5 91 a0 3a
       0.069765136 0.030884303 0.058017638 0.0012250511
0001f0 ba 16 e8 3b 55 fb 21 bd 82 cb 37 3c 6d ec 07 bd
       0.0070827873 -0.03954633 0.011217954 -0.033184458
000200 77 97 1b 3e 66 c7 d4 3b 2f b6 df 3d b0 e4 5c 3d
       0.15194498 0.0064934967 0.10923421 0.05392903
000210 4d 31 ab bd eb 92 b4 3d cc e4 7e bc 70 c0 87 bc
       -0.08359013 0.08817085 -0.015557479 -0.016571254
000220 ec f7 8d bd 9d 10 cf bd d0 e4 28 3d 17 e4 be bb
       -0.06932053 -0.101105906 0.041233838 -0.0058255303
000230 fd 6e ef 3d 9c d3 c3 bc 6c bd 07 3e b2 fe 1f bd
       0.11691091 -0.023904614 0.13255852 -0.039061256
000240 2a e0 29 3d 95 9d ef 3d 0e 00 18 3e 70 29 2b 3e
       0.041473545 0.11699978 0.14843771 0.16715026
000250 9a 18 41 3e 25 df 07 3c 20 5e 8a 3c 35 81 b7 bd
       0.18857041 0.008292948 0.016890585 -0.08960191
000260 dd 2f 48 bd a8 2c 18 be 50 eb 27 3d 08 39 c2 bd
       -0.04887377 -0.14860785 0.040995896 -0.09483534
000270 93 71 00 3b 9a 9b 44 3b 90 9e 7d bc fa 6c fe bd
       0.0019598946 0.0029999972 -0.015479699 -0.124231294
000280 0e 2a d7 3d d4 3f 1a bc aa 1d 1b 3b a2 1d f7 bd
       0.10506068 -0.009414632 0.0023668804 -0.12066199
000290 f1 81 a6 3c 71 18 f8 bc 5a 75 8e bd 81 a8 da 3d
       0.020325633 -0.030285092 -0.06955977 0.10676671
0002a0 b4 31 2b 3d 47 73 5b bd 2d 89 e0 bd 64 d9 a9 bd
       0.041795447 -0.053576734 -0.10963664 -0.08293417
0002b0 13 03 f3 ba 45 f7 a2 bd f1 82 d2 bd 2c ca 21 3d
       -0.0018540345 -0.07957319 -0.10278881 0.039499447
0002c0 82 2a eb bc 71 ec e0 3d af fe 08 3e a6 cc 9e bd
       -0.028706793 0.109825976 0.13378404 -0.07753877
0002d0 98 df d2 3d ca 36 bb 3d 57 53 9c 3d ec 85 b1 3b
       0.102965534 0.091413096 0.07633083 0.005417576
0002e0 79 d3 c2 3d c5 bd 16 3e 3f 4b d2 3d b4 3d 81 3d
       0.095129915 0.14720829 0.10268258 0.06310597
0002f0 50 8d 59 3d 2a c7 af 3d 6b 77 0c 3d d3 8f e8 3c
       0.05311328 0.085829094 0.034293573 0.028388893
000300 7c 5f 2d 3e 84 ff 57 3e ce 32 bd 3d b5 15 3c bd
       0.16930956 0.21093565 0.09238206 -0.04591914
000310 be 4a 0f bd cb c4 ba bc 16 68 0f 3d 5a 55 54 3d
       -0.03498339 -0.022798916 0.035011373 0.05183921
000320 74 95 cd bd 9b d3 64 bd 57 3d b7 3d 4c 2d 42 3c
       -0.100382715 -0.055865865 0.089472465 0.01185162
000330 ba 63 62 bd f6 88 9a bd b2 84 f1 bd 9b 47 09 be
       -0.055270888 -0.075456545 -0.11792888 -0.13406222
000340 bb 11 91 bd df 5e 57 bb 29 2f b1 3d 92 b4 09 3d
       -0.0708346 -0.0032862944 0.08651573 0.03361947
000350 a7 ab e0 bd 33 78 90 bd 76 9e a0 bc 8c 52 ec 3d
       -0.1097024 -0.07054176 -0.01960681 0.11539182
000360 ad e9 a1 3c 00 00 c3 bb 54 60 b0 3d 57 4e eb bb
       0.019764746 -0.0059509277 0.08612123 -0.0071809697
000370 2e 00 02 be 6a 8c 1d 3c 00 65 e9 bd 29 8b 77 bd
       -0.12695381 0.009615997 -0.11396217 -0.060435448
000380 fb ee 0b be 01 c5 8e 3d 4e 19 ee 3d 11 a8 89 3d
       -0.13665383 0.06971169 0.1162592 0.06721509
000390 9e f8 92 bd de 66 d3 bd 3f 35 c4 bd 15 3a cb 3d
       -0.07176326 -0.10322355 -0.095804684 0.09923188
0003a0 6a b5 5c 3d d3 a8 da 3d 75 ec b4 3d 35 38 f3 3c
       0.053883947 0.10676732 0.08834163 0.029689888
0003b0 2c 27 ed bc 11 f8 12 be 84 56 d2 bd e6 8c a7 bd
       -0.028949343 -0.14352442 -0.10270408 -0.08181171
0003c0 b0 7d 05 3b 88 f2 03 be c6 20 df bd f5 8d b5 bd
       0.0020369105 -0.12885487 -0.10894923 -0.08864967
0003d0 76 bb 46 3c 34 ba 34 be 58 13 2a be 39 c2 51 bd
       0.012129655 -0.17649156 -0.16608942 -0.051210616
0003e0 01 a5 88 bd 0f 37 b6 3d fd 28 26 bd 7f 6f 65 bd
       -0.06672097 0.0889722 -0.040566433 -0.056014534
0003f0 8f ee c7 ba 72 ee 6b bd fd c3 13 bd 92 6e ba bd
       -0.0015253591 -0.057600446 -0.03607558 -0.09103121

bias f4 [6]
000000 1d 6d 35 3e bb 08 55 be e1 97 eb bd 16 04 06 3b
       0.17717405 -0.20804112 -0.11503578 0.0020449213
000010 05 d1 c4 be 65 93 c9 bd
       -0.3844072 -0.098425664

weight f4 [16, 6, 5, 5]
000000 d3 22 f6 bb 59 dd bd 3d 29 bc fa ba b0 6b b5 bd
       -0.0075114756 0.09270734 -0.0019129562 -0.088584304
000010 45 ed 81 bc fd 2d 11 3d 4b 10 08 3d df 8d 99 bd
       -0.01586021 0.03544425 0.033218663 -0.07497763
000020 a1 e8 ca bb cd 82 90 bd 3d 8c 08 bd 57 d1 7b bd
       -0.0061922823 -0.07056198 -0.033336867 -0.06147894
000030 da 56 38 3d 76 a2 31 3d 11 14 3f 3d 47 ba ae 3d
       0.045004703 0.043367825 0.046649996 0.08531623
000040 f2 0b 94 3d 6c 97 74 bd 1c 0e 60 bd 0d 4a 32 3d
       0.07228841 -0.05971472 -0.054700956 0.04352765
000050 0b 4a 75 38 a5 f5 d7 bc 0a cb 49 bd 75 c5 8c 3c
       5.848151e-05 -0.02636225 -0.0492659 0.017183999
000060 3e a9 ad 3d 2f 93 51 bd d8 85 7a bd aa e8 81 3c
       0.08479546 -0.051165756 -0.0611628 0.015858013
000070 e7 ff 35 bd 74 7f 37 bd 4c fb b7 3c 30 9d 11 bd
       -0.0444335 -0.044799283 0.022458695 -0.035550296
000080 54 39 86 3d 9d 86 9d 3d 40 c9 21 3c b2 58 37 3c
       0.06553903 0.07691691 0.009874642 0.01119058
000090 7f f6 fc bb b2 c9 5f bc fb fa d7 3a 03 12 d3 3b
       -0.0077198143 -0.013658928 0.0016477996 0.006441356
0000a0 4e 27 0a b9 94 31 46 3d 67 ee 64 bd 30 68 22 bd
       -0.00013175348 0.048387125 -0.05589142 -0.039650142
0000b0 87 2b 08 bc b3 49 a0 bd 76 4f c6 bc 2b 57 3f 3c
       -0.008311159 -0.07826557 -0.024207812 0.011678497
0000c0 ba ff 1e 3c 28 f6 49 3b c4 a0 83 bd 6a d4 56 bd
       0.009704525 0.0030816887 -0.06427148 -0.052448668
0000d0 aa 62 09 bd 8e 92 11 bd 26 73 6c bb 59 8f 9f bd
       -0.03354136 -0.035540156 -0.0036079376 -0.07791013
0000e0 53 a7 b1 3c 98 88 85 bd 05 6c 5f bd e4 1a 99 bd
       0.021686232 -0.06520194 -0.054546375 -0.07475832
0000f0 92 17 a0 3d 1c 2b b1 bd 6c 39 64 3d 63 5d 19 bc
       0.07816996 -0.086508006 0.055718824 -0.009360644
000100 b2 4c 92 bc 2d ad 77 3d 82 12 14 bc 53 f2 37 3d
       -0.017858837 0.060467888 -0.009037616 0.044908833
000110 d0 03 87 3d 6f 1d 93 bd 2c fc 26 3d f9 3e e8 3c
       0.06592524 -0.071833484 0.040767834 0.02835034
000120 0c 3f c7 3c 2a fb 82 3c 60 15 18 3d 59 79 81 3b
       0.024322055 0.015988905 0.03712976 0.0039512333
000130 42 da 97 3c ce d8 f2 3d ab 22 ab 3d 40 8d 20 bb
       0.01853669 0.118577585 0.08356222 -0.0024498254
000140 2d c0 14 bd a0 56 38 3d 12 3d e8 bc 84 ae a1 3d
       -0.036316086 0.045004487 -0.028349433 0.07894614
000150 1c 14 65 bd 97 54 dd 3c 76 3b 14 3d c6 ad 22 3d
       -0.05592738 0.027017875 0.03618952 0.039716505
000160 3a e3 8b 3d 31 78 a6 bb f0 f6 b2 3d bb 9d e1 3d
       0.068304494 -0.005080246 0.08738506 0.11016413
000170 19 71 c0 3d 60 2e 15 bd 91 f5 27 bd e8 42 fd 3d
       0.09396572 -0.03642118 -0.041005675 0.12366277
000180 6b 72 35 3d e2 ed b9 3d 08 02 51 bb 9e 28 83 bd
       0.04429857 0.09078576 -0.003189208 -0.064042315
000190 2d 2e 8a bc de 05 39 bd 7e 70 ed bc 17 4c ab 3c
       -0.016867721 -0.04517161 -0.028984305 0.020910306
0001a0 36 f9 3b 3c 5d 5d 24 3d 7a 4b d6 bc f4 4c c1 bd
       0.011472991 0.0401281 -0.026159037 -0.09438506
0001b0 e6 d4 a0 bd 84 df 7e bd 8a 36 bb bd 04 ff 82 bd
       -0.07853107 -0.06222488 -0.09141262 -0.063962966
0001c0 4e 64 a9 bd ad fc aa bd 01 90 68 bd 38 9d ec bd
       -0.08271085 -0.08348975 -0.056777958 -0.115534246
0001d0 7b 03 a2 bd 5f 22 de 3b 35 d9 65 3d 46 9e 2c bd
       -0.0791082 0.0067789997 0.056115348 -0.04214313
0001e0 82 8c 6e bd f4 8c 7f 3c 6f 03 7f bd 1c 3c 4f bd
       -0.058239467 0.015597571 -0.062259134 -0.050594434
0001f0 62 ea 56 3d ed 66 cd bd 27 19 2a bd de 48 31 3c
       0.05246962 -0.10029397 -0.041527893 0.010820596
000200 0c 5c 17 bd e5 ee 54 bc 94 27 a3 bd 1a 53 26 bd
       -0.036953017 -0.01299641 -0.07966533 -0.040606596
000210 73 80 20 bd f2 b9 a9 bc b4 28 94 3b a6 6e de 3c
       -0.039185 -0.020718548 0.0045214538 0.02715237
000220 e6 20 e5 bd fb d6 58 bd 03 77 9d bd 0e 36 ab bd
       -0.111879155 -0.052939396 -0.07688715 -0.083599195
000230 11 5b 50 bd 80 15 f7 bd 59 28 01 3c 17 3f d5 bc
       -0.050868098 -0.12064648 0.007883155 -0.02603106
000240 14 08 96 bd ec de 14 3c 63 b4 e9 bd 67 36 86 bd
       -0.073257595 0.009086352 -0.11411359 -0.06553345
000250 39 50 20 bd 66 5f b2 bd 4b 87 de bc 99 78 0f bb
       -0.039139006 -0.08709602 -0.027164122 -0.002189195
000260 b3 76 a7 3c fc 63 05 3d 96 9a 30 3d 5e 95 12 bc
       0.020442342 0.032566056 0.043116175 -0.008946745
000270 a9 b4 e0 bc c5 35 2c 3d 03 0b 05 bc 52 5f 71 ba
       -0.027429895 0.042043466 -0.008120301 -0.0009207624
000280 96 91 0d 3d 52 54 50 bd 4e b6 3f bd 16 c9 40 3d
       0.03456267 -0.050861664 -0.04680472 0.04706677
000290 fa a8 f0 bc 54 da 7e bb e9 d8 af bd 28 90 93 bd
       -0.02937745 -0.0038887458 -0.08586294 -0.0720523
0002a0 87 50 1d bd ac 85 ba bd fa d0 24 bd be a8 92 bc
       -0.038406875 -0.09107527 -0.040238358 -0.017902728
0002b0 80 4e f1 bd 73 6c 8b bc 0e 80 dd bd a5 42 97 bd
       -0.11782551 -0.017019486 -0.1081544 -0.07385758
0002c0 3f 97 41 ba 98 b5 ee 3c 9c 0c 77 bd 83 9b 85 bd
       -0.0007384903 0.029139325 -0.06031476 -0.06523802
0002d0 30 18 bd bd 51 48 6a bd 67 f3 c7 bd 5e fa 73 bd
       -0.09233129 -0.057197873 -0.09763222 -0.05956494
0002e0 b7 9d f4 bc a8 19 ab bd ca 75 ad 3d c0 48 84 3d
       -0.02986036 -0.08354503 0.08469732 0.064591885
0002f0 cc 87 a5 bd ca 99 60 bd e0 e2 0e 3d c5 a8 3a bc
       -0.08082542 -0.054834165 0.034884334 -0.011392777
000300 eb 0c c8 3b 3f 54 c1 bc c9 46 71 3d de f0 3c bc
       0.0061050556 -0.023599742 0.058905397 -0.011532037
000310 00 69 b8 3d 2a 92 10 3d 23 43 3d 3d 27 09 94 3d
       0.09004402 0.035295643 0.046206605 0.07228308
000320 18 d3 63 bc d3 e9 28 bd 20 04 c6 bc 66 8c 5b 3d
       -0.013905309 -0.041238617 -0.024171889 0.05360069
000330 97 3c 6f bd c5 91 c9 3c 29 e7 94 bd 78 c6 49 3d
       -0.058407392 0.024605641 -0.07270653 0.04926154
000340 d7 c8 3d 3d bf e1 b0 3c 10 22 14 3d 5a 3e 71 3b
       0.046334114 0.02159202 0.036165297 0.0036810846
000350 45 e8 2d 3d 47 d5 95 bd ac c6 b9 bc cb 85 04 3d
       0.042457838 -0.0731607 -0.022677742 0.032354157
000360 dc 68 ac 3d f3 02 51 3d 0d 75 4f bd f8 32 8f 3d
       0.08418438 0.051028203 -0.050648738 0.069921434
000370 15 d5 db bc 77 1b d6 bc 10 32 a1 bd 74 05 9c bc
       -0.026835004 -0.026136143 -0.07870877 -0.019045569
000380 72 30 2f 3d 65 ef 8a bd c7 d0 d1 bd 15 43 93 bc
       0.04277081 -0.06783942 -0.10244899 -0.017976323
000390 bd d5 88 bd 5f 9f 03 3c 88 dc f6 bd aa 41 6e bd
       -0.06681392 0.0080336025 -0.12053782 -0.05816809
0003a0 c2 9d b9 bd b9 42 40 bd 64 af ad ba b9 65 a9 3d
       -0.09063293 -0.04693863 -0.0013251123 0.08271355
0003b0 53 2c 0a 3d ae 57 f4 3d 8a 63 39 3d de 5f 88 3d
       0.033733677 0.11930786 0.045260943 0.0665891
0003c0 db fb bf 3d 62 0f f2 3d c8 16 29 3b 60 1e f8 3d
       0.093742095 0.1181934 0.0025800932 0.121151686
0003d0 d0 45 af 3d f8 0a 2b bd a3 1b e5 bc 75 5a 69 bd
       0.085582376 -0.041758507 -0.02796728 -0.056971032
0003e0 c9 37 dd 3c f6 6f 72 bd e1 c1 14 3d 06 7e fb 3c
       0.02700414 -0.059188806 0.03631771 0.030699741
0003f0 1c 69 8a bd 01 aa 70 3c 38 65 32 bc 70 47 66 3d
       -0.06758329 0.01468897 -0.01088839 0.05622047

bias f4 [16]
000000 15 40 01 3e a9 92 fa bd 77 d5 5f bd 4c bd 3b 3d
       0.12622102 -0.122350045 -0.054646935 0.045834824
000010 50 03 af bd a1 b0 62 3d e8 21 67 3e 23 55 ed 3d
       -0.08545554 0.055344228 0.22571528 0.11588504
000020 71 1e 17 3e 61 67 e5 3b 50 96 27 3d bb 33 ec 3d
       0.14757706 0.007000849 0.040914834 0.11533304
000030 89 9f 7a 3d e2 26 c3 bd 59 6f c8 3d f9 cd 66 3c
       0.0611873 -0.09528901 0.09786863 0.014087194

weight f4 [2, 400]
000000 c9 64 5c 3c 20 3a 86 3c 33 b2 91 3b 53 e0 06 3d
       0.013451763 0.016385138 0.004446292 0.032928776
000010 61 5a 15 3d 34 98 5e bd e8 9d f5 bc 16 eb c4 3c
       0.036463145 -0.05434437 -0.029982522 0.024037879
000020 44 f9 1c bd 20 9d 6b bd b8 22 f9 bd cf 06 81 bd
       -0.038323656 -0.057522893 -0.12164825 -0.06300127
000030 7d a7 0d bd af f5 0d 3d 33 76 5c bd e7 eb ee bd
       -0.034583557 0.03465813 -0.05382366 -0.116660886
000040 f8 d4 f2 bc 51 5c 9b 3c 93 fb 01 bb f5 f3 0b bd
       -0.029642567 0.018964918 -0.0019833788 -0.034168202
000050 8f 15 a9 bd b7 3b 29 bd 06 2e ae 3b a7 df e8 3b
       -0.08256065 -0.041316714 0.005315545 0.0071067396
000060 d1 a0 84 3c 03 98 2a 3d b8 32 5a 3d 01 c2 94 bc
       0.016189964 0.041648876 0.053271025 -0.018158915
000070 01 30 d5 bc 07 a7 11 3b 3d 4d f3 bc 9e 4e 90 3c
       -0.026023867 0.00222248 -0.029699916 0.017615613
000080 6d 20 aa bc ed 17 5d bc e2 93 e8 bc 7a 55 0b 3d
       -0.020767415 -0.013494474 -0.028390829 0.034017064
000090 9c bd 62 3d b1 72 7f 3d eb b6 08 3c 73 b5 7c 3d
       0.055356607 0.062365238 0.008344392 0.06169648
0000a0 ad 90 ab 3c d3 39 49 bc 97 1a 2b bd 67 12 6c 3b
       0.02094301 -0.012281853 -0.041773405 0.003602171
0000b0 79 45 af bc b7 bd a0 3d 3a 20 4e 3d c9 f4 07 3d
       -0.021395432 0.07848685 0.050323702 0.03319243
0000c0 f5 9a bf 3d a3 c8 0d 3e e5 18 51 3d 3f 77 ba 3b
       0.093557276 0.13846068 0.051049132 0.005690485
0000d0 c1 85 23 bd b2 3e 04 bd db 37 3e 3c 2c a2 8f bb
       -0.03992248 -0.032286353 0.011609997 -0.004383346
0000e0 cd c0 49 3d a3 ec 6a 3d b9 8b a8 bc aa 3b ca 3b
       0.049256135 0.05735458 -0.020574437 0.0061716633
0000f0 d4 d1 80 bd b3 c3 93 3d 80 35 01 bc 4c fa 38 bc
       -0.062900215 0.07215061 -0.007886291 -0.011290144
000100 c6 22 5c 3d 0e 90 6f 3d 09 13 72 3d a8 bb 64 3d
       0.0537441 0.05848699 0.059100185 0.055843025
000110 8b 62 93 3d 69 3a 89 3d 42 e8 71 bd 64 ce 37 3d
       0.0719653 0.06700594 -0.05905939 0.044874564
000120 d9 df 59 3d 0d ce 45 3d f9 ba 8e bc 11 7e 90 3d
       0.053191993 0.04829221 -0.01742314 0.07055295
000130 69 2d 75 3d f2 46 99 3d a4 23 7f 3d 18 2a 03 bd
       0.05985776 0.07484235 0.06228985 -0.032022566
000140 aa a4 cd 3c 7c 76 2e 3d 08 99 be ba 7c 37 29 3d
       0.025102932 0.042593464 -0.0014541456 0.04131268
000150 b2 4a a6 3b 44 82 40 bd 80 56 5c bc 6e ef 0a 3a
       0.0050748223 -0.04699923 -0.013448358 0.000529996
000160 a8 22 58 3c 92 39 15 bd e5 78 26 bc 3e 3b dd 3c
       0.013191856 -0.036431856 -0.010160659 0.027005788
000170 71 53 10 39 71 ea b9 bc b0 f8 f5 bb 48 66 e8 bd
       0.00013763995 -0.022694798 -0.0075064525 -0.113476336
000180 9d 73 b1 bd 5b 04 0a bd 5d ec 18 3c 0f 33 ae bd
       -0.086646296 -0.03369556 0.009333697 -0.085058324
000190 5f b8 30 bd 08 2c 94 bd cd 46 d4 bd dd 82 61 bd
       -0.04314458 -0.07234961 -0.10365067 -0.05505644
0001a0 94 a0 5c bc 6b 30 94 bb d2 61 f8 3b 68 b3 17 3c
       -0.013466019 -0.0045223734 0.0075800205 0.009259082
0001b0 6c 08 98 3d 59 e8 ae 3d 7b 71 a6 3d 3b 33 b2 3d
       0.07423481 0.085404105 0.081271134 0.08701178
0001c0 65 fe e8 3b 7e b1 dc 3d 35 5a e5 3d 83 9c 28 3d
       0.0071104043 0.107760414 0.11198846 0.041164886
0001d0 67 24 5f 3d 71 3a 01 bd 38 86 bd bb 00 5d 80 3d
       0.054478075 -0.031549875 -0.0057838224 0.06267738
0001e0 42 38 30 3d 46 09 45 ba 78 99 05 b9 fe c6 0f bd
       0.0430224 -0.00075163355 -0.0001274104 -0.035101883
0001f0 91 57 b6 bc d6 7b 13 3c 07 89 a8 bd de b4 f0 bc
       -0.022258552 0.009001693 -0.08229261 -0.02938312
000200 28 95 2b 3a 09 e5 4b bd 28 df 2f bd 35 ce 82 bd
       0.00065453583 -0.04977897 -0.042937428 -0.06386987
000210 62 aa e5 bb 8b 00 37 bd 7e 4e 93 bd 46 91 b0 ba
       -0.0070088366 -0.044678252 -0.071927056 -0.0013471029
000220 90 10 49 bc c8 a9 09 bd 49 a8 93 bd 55 d0 b8 bc
       -0.012272015 -0.03360918 -0.07209832 -0.022560278
000230 02 e2 24 3b 9f 98 15 3d 45 ec bc 3c f1 30 46 bd
       0.0025159125 0.036522504 0.02306188 -0.048386518
000240 19 ba 8e bc 80 3f c2 3d ab 01 4b ba 2e 99 16 3c
       -0.017422723 0.09484768 -0.0007744084 0.009191794
000250 12 ce 59 bd 20 12 af bd c9 46 c1 bb 0b d0 95 bd
       -0.05317504 -0.08548379 -0.005898331 -0.07315072
000260 c0 fb c8 3c 7c 8b af bc a5 65 c0 bc 7c 02 07 bb
       0.024534106 -0.021428816 -0.023485968 -0.0020600846
000270 be 47 45 bd 93 e6 0f bc 19 3e 44 3d dc e5 89 bb
       -0.04816412 -0.0087830005 0.047910783 -0.0042083096
000280 80 d3 8c bc 26 d6 57 bd 10 a9 6a 3d f5 79 3e bd
       -0.017190695 -0.052694462 0.057290137 -0.046503026
000290 52 76 e4 bd 6b 66 9b bd 67 02 78 bd 3c 09 f7 bc
       -0.1115538 -0.07587894 -0.060549166 -0.03015577
0002a0 97 55 7b bd 55 19 dc bd 60 34 e8 bd 53 2f 1a bd
       -0.06136092 -0.10747019 -0.11338115 -0.03764279
0002b0 53 32 a4 bd 95 d8 40 bd ca 89 d6 3a 55 0a e7 3b
       -0.08017411 -0.04708155 0.0016367969 0.007050792
0002c0 f1 f7 86 bc 71 2f 17 bd c2 8e 24 3d 0d 99 10 3d
       -0.01647565 -0.036910478 0.040175207 0.03530221
0002d0 71 bf c2 3c 4d fc bb 3a 74 11 e5 3c f9 1b 3a 3d
       0.023772927 0.0014342159 0.027962424 0.045436833
0002e0 d2 df 41 b9 a2 4b 51 bd 0f b5 5f bd 1a 12 f3 3c
       -0.00018489294 -0.05109752 -0.05461603 0.029671717
0002f0 87 a0 5a 3c 20 f2 22 3d cc e5 85 bd 35 be 50 bc
       0.013343937 0.03978169 -0.06537971 -0.012740661
000300 17 4d 57 bc c1 b5 2f bd 11 1a c3 bb 80 47 e7 bd
       -0.013140938 -0.042897943 -0.005954035 -0.112929344
000310 8e f7 11 bd 20 60 e1 bc 17 c5 b3 bd 3f 68 82 bd
       -0.035636477 -0.027511656 -0.08777826 -0.063675396
000320 05 c0 32 be 38 42 d0 bd 6b 9f d2 bd 72 b2 05 be
       -0.17456062 -0.1016888 -0.10284313 -0.13056353
000330 c8 b7 b3 bd bc 43 78 bd 0d f9 79 bd 6e 45 cd bd
       -0.08775288 -0.06061147 -0.06102853 -0.10023008
000340 ab fc bf bd 77 d1 27 bd cb d3 3a bd fe 45 8d bd
       -0.093743645 -0.040971246 -0.045612138 -0.068981156
000350 b9 26 93 bd eb 36 66 bd 98 46 d7 3c 97 f1 6a 3d
       -0.0718512 -0.056204718 0.026278779 0.057359304
000360 e7 69 c4 3c 22 91 5f 3c 5c 3d cd 3c b5 63 58 3d
       0.02397628 0.013645442 0.025053672 0.052829463
000370 4b 5e 4b 3d b5 22 be 3d 21 71 be 3d 6b 39 a9 3d
       0.04965047 0.092839636 0.092989214 0.08262905
000380 23 5a ac 3d 32 3b 6d 3d d0 4d 2f bd 3b c4 8d 3c
       0.0841563 0.05791778 -0.042798817 0.017305484
000390 a0 ff a8 ba b2 43 0b 3d 6f 07 2c bc 05 05 9b bc
       -0.0012893565 0.034000106 -0.010499819 -0.018923292
0003a0 ae df 6a 3c 82 74 b5 3c 1e 37 e6 bc ee 84 bc 3d
       0.014335556 0.022150282 -0.028102454 0.09205042
0003b0 29 c5 12 bd 51 e3 ac bd 59 3c 4e bd 3b fa e0 bb
       -0.035832558 -0.08441795 -0.05035052 -0.0068657673
0003c0 27 12 3c 3d 46 72 d8 3c 56 40 3c bd 0d ae 0a bd
       0.04591575 0.026421677 -0.045959793 -0.033857394
0003d0 0c 9f 6a bd af 6b 02 3e b5 d3 a5 3c 43 98 78 bc
       -0.057280585 0.1273639 0.020242551 -0.015173021
0003e0 8d 71 10 3c 31 8c b1 bb 4c d4 79 3d a1 2d 8f 3c
       0.008816135 -0.0054183234 0.060993478 0.017477812
0003f0 57 8c 47 3d 54 ab 6a bc 25 42 c8 3c 96 b5 08 bd
       0.048717823 -0.014323074 0.024445603 -0.0333763

bias f4 [2]
000000 a8 28 06 be e2 03 05 3e
       -0.13101447 0.12989762
